Model Summary:
Model: "densenet"
__________________________________________________________________________________________________
Layer (type)                    Output Shape         Param #     Connected to                     
==================================================================================================
input_1 (InputLayer)            [(None, 2, 100, 100) 0                                            
__________________________________________________________________________________________________
conv2d (Conv2D)                 (None, 64, 100, 100) 1152        input_1[0][0]                    
__________________________________________________________________________________________________
batch_normalization (BatchNorma (None, 64, 100, 100) 256         conv2d[0][0]                     
__________________________________________________________________________________________________
activation (Activation)         (None, 64, 100, 100) 0           batch_normalization[0][0]        
__________________________________________________________________________________________________
conv2d_1 (Conv2D)               (None, 128, 100, 100 8192        activation[0][0]                 
__________________________________________________________________________________________________
batch_normalization_1 (BatchNor (None, 128, 100, 100 512         conv2d_1[0][0]                   
__________________________________________________________________________________________________
activation_1 (Activation)       (None, 128, 100, 100 0           batch_normalization_1[0][0]      
__________________________________________________________________________________________________
conv2d_2 (Conv2D)               (None, 32, 100, 100) 36864       activation_1[0][0]               
__________________________________________________________________________________________________
concatenate (Concatenate)       (None, 96, 100, 100) 0           conv2d[0][0]                     
                                                                 conv2d_2[0][0]                   
__________________________________________________________________________________________________
batch_normalization_2 (BatchNor (None, 96, 100, 100) 384         concatenate[0][0]                
__________________________________________________________________________________________________
activation_2 (Activation)       (None, 96, 100, 100) 0           batch_normalization_2[0][0]      
__________________________________________________________________________________________________
conv2d_3 (Conv2D)               (None, 128, 100, 100 12288       activation_2[0][0]               
__________________________________________________________________________________________________
batch_normalization_3 (BatchNor (None, 128, 100, 100 512         conv2d_3[0][0]                   
__________________________________________________________________________________________________
activation_3 (Activation)       (None, 128, 100, 100 0           batch_normalization_3[0][0]      
__________________________________________________________________________________________________
conv2d_4 (Conv2D)               (None, 32, 100, 100) 36864       activation_3[0][0]               
__________________________________________________________________________________________________
concatenate_1 (Concatenate)     (None, 128, 100, 100 0           concatenate[0][0]                
                                                                 conv2d_4[0][0]                   
__________________________________________________________________________________________________
…
batch_normalization_12 (BatchNo (None, 256, 100, 100 1024        concatenate_5[0][0]              
__________________________________________________________________________________________________
activation_12 (Activation)      (None, 256, 100, 100 0           batch_normalization_12[0][0]     
__________________________________________________________________________________________________
conv2d_13 (Conv2D)              (None, 128, 100, 100 32768       activation_12[0][0]              
__________________________________________________________________________________________________
average_pooling2d (AveragePooli (None, 128, 50, 50)  0           conv2d_13[0][0]                  
__________________________________________________________________________________________________
batch_normalization_13 (BatchNo (None, 128, 50, 50)  512         average_pooling2d[0][0]          
__________________________________________________________________________________________________
activation_13 (Activation)      (None, 128, 50, 50)  0           batch_normalization_13[0][0]     
__________________________________________________________________________________________________
conv2d_14 (Conv2D)              (None, 128, 50, 50)  16384       activation_13[0][0]              
__________________________________________________________________________________________________
batch_normalization_14 (BatchNo (None, 128, 50, 50)  512         conv2d_14[0][0]                  
__________________________________________________________________________________________________
activation_14 (Activation)      (None, 128, 50, 50)  0           batch_normalization_14[0][0]     
__________________________________________________________________________________________________
conv2d_15 (Conv2D)              (None, 32, 50, 50)   36864       activation_14[0][0]              
__________________________________________________________________________________________________
concatenate_6 (Concatenate)     (None, 160, 50, 50)  0           average_pooling2d[0][0]          
                                                                 conv2d_15[0][0]                  
__________________________________________________________________________________________________
batch_normalization_15 (BatchNo (None, 160, 50, 50)  640         concatenate_6[0][0]              
__________________________________________________________________________________________________
activation_15 (Activation)      (None, 160, 50, 50)  0           batch_normalization_15[0][0]     
__________________________________________________________________________________________________
conv2d_16 (Conv2D)              (None, 128, 50, 50)  20480       activation_15[0][0]              
__________________________________________________________________________________________________
batch_normalization_16 (BatchNo (None, 128, 50, 50)  512         conv2d_16[0][0]                  
__________________________________________________________________________________________________
activation_16 (Activation)      (None, 128, 50, 50)  0           batch_normalization_16[0][0]     
__________________________________________________________________________________________________
conv2d_17 (Conv2D)              (None, 32, 50, 50)   36864       activation_16[0][0]              
__________________________________________________________________________________________________
concatenate_7 (Concatenate)     (None, 192, 50, 50)  0           concatenate_6[0][0]              
                                                                 conv2d_17[0][0]                  
__________________________________________________________________________________________________
batch_normalization_17 (BatchNo (None, 192, 50, 50)  768         concatenate_7[0][0]              
__________________________________________________________________________________________________
activation_17 (Activation)      (None, 192, 50, 50)  0           batch_normalization_17[0][0]     
__________________________________________________________________________________________________
conv2d_18 (Conv2D)              (None, 128, 50, 50)  24576       activation_17[0][0]              
__________________________________________________________________________________________________
batch_normalization_18 (BatchNo (None, 128, 50, 50)  512         conv2d_18[0][0]                  
__________________________________________________________________________________________________
activation_18 (Activation)      (None, 128, 50, 50)  0           batch_normalization_18[0][0]     
__________________________________________________________________________________________________
conv2d_19 (Conv2D)              (None, 32, 50, 50)   36864       activation_18[0][0]              
__________________________________________________________________________________________________
concatenate_8 (Concatenate)     (None, 224, 50, 50)  0           concatenate_7[0][0]              
                                                                 conv2d_19[0][0]                  
__________________________________________________________________________________________________
batch_normalization_19 (BatchNo (None, 224, 50, 50)  896         concatenate_8[0][0]              
__________________________________________________________________________________________________
activation_19 (Activation)      (None, 224, 50, 50)  0           batch_normalization_19[0][0]     
__________________________________________________________________________________________________
conv2d_20 (Conv2D)              (None, 128, 50, 50)  28672       activation_19[0][0]              
__________________________________________________________________________________________________
batch_normalization_20 (BatchNo (None, 128, 50, 50)  512         conv2d_20[0][0]                  
__________________________________________________________________________________________________
activation_20 (Activation)      (None, 128, 50, 50)  0           batch_normalization_20[0][0]     
__________________________________________________________________________________________________
conv2d_21 (Conv2D)              (None, 32, 50, 50)   36864       activation_20[0][0]              
__________________________________________________________________________________________________
concatenate_9 (Concatenate)     (None, 256, 50, 50)  0           concatenate_8[0][0]              
                                                                 conv2d_21[0][0]                  
__________________________________________________________________________________________________
batch_normalization_21 (BatchNo (None, 256, 50, 50)  1024        concatenate_9[0][0]              
__________________________________________________________________________________________________
activation_21 (Activation)      (None, 256, 50, 50)  0           batch_normalization_21[0][0]     
__________________________________________________________________________________________________
conv2d_22 (Conv2D)              (None, 128, 50, 50)  32768       activation_21[0][0]              
__________________________________________________________________________________________________
batch_normalization_22 (BatchNo (None, 128, 50, 50)  512         conv2d_22[0][0]                  
__________________________________________________________________________________________________
activation_22 (Activation)      (None, 128, 50, 50)  0           batch_normalization_22[0][0]     
__________________________________________________________________________________________________
conv2d_23 (Conv2D)              (None, 32, 50, 50)   36864       activation_22[0][0]              
__________________________________________________________________________________________________
concatenate_10 (Concatenate)    (None, 288, 50, 50)  0           concatenate_9[0][0]              
                                                                 conv2d_23[0][0]                  
__________________________________________________________________________________________________
batch_normalization_23 (BatchNo (None, 288, 50, 50)  1152        concatenate_10[0][0]             
__________________________________________________________________________________________________
activation_23 (Activation)      (None, 288, 50, 50)  0           batch_normalization_23[0][0]     
__________________________________________________________________________________________________
conv2d_24 (Conv2D)              (None, 128, 50, 50)  36864       activation_23[0][0]              
__________________________________________________________________________________________________
batch_normalization_24 (BatchNo (None, 128, 50, 50)  512         conv2d_24[0][0]                  
__________________________________________________________________________________________________
activation_24 (Activation)      (None, 128, 50, 50)  0           batch_normalization_24[0][0]     
__________________________________________________________________________________________________
conv2d_25 (Conv2D)              (None, 32, 50, 50)   36864       activation_24[0][0]              
__________________________________________________________________________________________________
concatenate_11 (Concatenate)    (None, 320, 50, 50)  0           concatenate_10[0][0]             
                                                                 conv2d_25[0][0]                  
__________________________________________________________________________________________________
batch_normalization_25 (BatchNo (None, 320, 50, 50)  1280        concatenate_11[0][0]             
__________________________________________________________________________________________________
activation_25 (Activation)      (None, 320, 50, 50)  0           batch_normalization_25[0][0]     
__________________________________________________________________________________________________
conv2d_26 (Conv2D)              (None, 128, 50, 50)  40960       activation_25[0][0]              
__________________________________________________________________________________________________
batch_normalization_26 (BatchNo (None, 128, 50, 50)  512         conv2d_26[0][0]                  
__________________________________________________________________________________________________
activation_26 (Activation)      (None, 128, 50, 50)  0           batch_normalization_26[0][0]     
__________________________________________________________________________________________________
conv2d_27 (Conv2D)              (None, 32, 50, 50)   36864       activation_26[0][0]              
__________________________________________________________________________________________________
concatenate_12 (Concatenate)    (None, 352, 50, 50)  0           concatenate_11[0][0]             
                                                                 conv2d_27[0][0]                  
__________________________________________________________________________________________________
batch_normalization_27 (BatchNo (None, 352, 50, 50)  1408        concatenate_12[0][0]             
__________________________________________________________________________________________________
activation_27 (Activation)      (None, 352, 50, 50)  0           batch_normalization_27[0][0]     
__________________________________________________________________________________________________
conv2d_28 (Conv2D)              (None, 128, 50, 50)  45056       activation_27[0][0]              
__________________________________________________________________________________________________
batch_normalization_28 (BatchNo (None, 128, 50, 50)  512         conv2d_28[0][0]                  
__________________________________________________________________________________________________
activation_28 (Activation)      (None, 128, 50, 50)  0           batch_normalization_28[0][0]     
__________________________________________________________________________________________________
conv2d_29 (Conv2D)              (None, 32, 50, 50)   36864       activation_28[0][0]              
__________________________________________________________________________________________________
concatenate_13 (Concatenate)    (None, 384, 50, 50)  0           concatenate_12[0][0]             
                                                                 conv2d_29[0][0]                  
__________________________________________________________________________________________________
batch_normalization_29 (BatchNo (None, 384, 50, 50)  1536        concatenate_13[0][0]             
__________________________________________________________________________________________________
activation_29 (Activation)      (None, 384, 50, 50)  0           batch_normalization_29[0][0]     
__________________________________________________________________________________________________
conv2d_30 (Conv2D)              (None, 128, 50, 50)  49152       activation_29[0][0]              
__________________________________________________________________________________________________
batch_normalization_30 (BatchNo (None, 128, 50, 50)  512         conv2d_30[0][0]                  
__________________________________________________________________________________________________
activation_30 (Activation)      (None, 128, 50, 50)  0           batch_normalization_30[0][0]     
__________________________________________________________________________________________________
conv2d_31 (Conv2D)              (None, 32, 50, 50)   36864       activation_30[0][0]              
__________________________________________________________________________________________________
concatenate_14 (Concatenate)    (None, 416, 50, 50)  0           concatenate_13[0][0]             
                                                                 conv2d_31[0][0]                  
__________________________________________________________________________________________________
batch_normalization_31 (BatchNo (None, 416, 50, 50)  1664        concatenate_14[0][0]             
__________________________________________________________________________________________________
activation_31 (Activation)      (None, 416, 50, 50)  0           batch_normalization_31[0][0]     
__________________________________________________________________________________________________
conv2d_32 (Conv2D)              (None, 128, 50, 50)  53248       activation_31[0][0]              
__________________________________________________________________________________________________
batch_normalization_32 (BatchNo (None, 128, 50, 50)  512         conv2d_32[0][0]                  
__________________________________________________________________________________________________
activation_32 (Activation)      (None, 128, 50, 50)  0           batch_normalization_32[0][0]     
__________________________________________________________________________________________________
conv2d_33 (Conv2D)              (None, 32, 50, 50)   36864       activation_32[0][0]              
__________________________________________________________________________________________________
concatenate_15 (Concatenate)    (None, 448, 50, 50)  0           concatenate_14[0][0]             
                                                                 conv2d_33[0][0]                  
__________________________________________________________________________________________________
batch_normalization_33 (BatchNo (None, 448, 50, 50)  1792        concatenate_15[0][0]             
__________________________________________________________________________________________________
activation_33 (Activation)      (None, 448, 50, 50)  0           batch_normalization_33[0][0]     
__________________________________________________________________________________________________
conv2d_34 (Conv2D)              (None, 128, 50, 50)  57344       activation_33[0][0]              
__________________________________________________________________________________________________
batch_normalization_34 (BatchNo (None, 128, 50, 50)  512         conv2d_34[0][0]                  
__________________________________________________________________________________________________
activation_34 (Activation)      (None, 128, 50, 50)  0           batch_normalization_34[0][0]     
__________________________________________________________________________________________________
conv2d_35 (Conv2D)              (None, 32, 50, 50)   36864       activation_34[0][0]              
__________________________________________________________________________________________________
concatenate_16 (Concatenate)    (None, 480, 50, 50)  0           concatenate_15[0][0]             
                                                                 conv2d_35[0][0]                  
__________________________________________________________________________________________________
batch_normalization_35 (BatchNo (None, 480, 50, 50)  1920        concatenate_16[0][0]             
__________________________________________________________________________________________________
activation_35 (Activation)      (None, 480, 50, 50)  0           batch_normalization_35[0][0]     
__________________________________________________________________________________________________
conv2d_36 (Conv2D)              (None, 128, 50, 50)  61440       activation_35[0][0]              
__________________________________________________________________________________________________
batch_normalization_36 (BatchNo (None, 128, 50, 50)  512         conv2d_36[0][0]                  
__________________________________________________________________________________________________
activation_36 (Activation)      (None, 128, 50, 50)  0           batch_normalization_36[0][0]     
__________________________________________________________________________________________________
conv2d_37 (Conv2D)              (None, 32, 50, 50)   36864       activation_36[0][0]              
__________________________________________________________________________________________________
concatenate_17 (Concatenate)    (None, 512, 50, 50)  0           concatenate_16[0][0]             
                                                                 conv2d_37[0][0]                  
__________________________________________________________________________________________________
batch_normalization_37 (BatchNo (None, 512, 50, 50)  2048        concatenate_17[0][0]             
__________________________________________________________________________________________________
activation_37 (Activation)      (None, 512, 50, 50)  0           batch_normalization_37[0][0]     
__________________________________________________________________________________________________
conv2d_38 (Conv2D)              (None, 256, 50, 50)  131072      activation_37[0][0]              
__________________________________________________________________________________________________
average_pooling2d_1 (AveragePoo (None, 256, 25, 25)  0           conv2d_38[0][0]                  
__________________________________________________________________________________________________
batch_normalization_38 (BatchNo (None, 256, 25, 25)  1024        average_pooling2d_1[0][0]        
__________________________________________________________________________________________________
activation_38 (Activation)      (None, 256, 25, 25)  0           batch_normalization_38[0][0]     
__________________________________________________________________________________________________
conv2d_39 (Conv2D)              (None, 128, 25, 25)  32768       activation_38[0][0]              
__________________________________________________________________________________________________
batch_normalization_39 (BatchNo (None, 128, 25, 25)  512         conv2d_39[0][0]                  
__________________________________________________________________________________________________
activation_39 (Activation)      (None, 128, 25, 25)  0           batch_normalization_39[0][0]     
__________________________________________________________________________________________________
conv2d_40 (Conv2D)              (None, 32, 25, 25)   36864       activation_39[0][0]              
__________________________________________________________________________________________________
concatenate_18 (Concatenate)    (None, 288, 25, 25)  0           average_pooling2d_1[0][0]        
                                                                 conv2d_40[0][0]                  
__________________________________________________________________________________________________
batch_normalization_40 (BatchNo (None, 288, 25, 25)  1152        concatenate_18[0][0]             
__________________________________________________________________________________________________
activation_40 (Activation)      (None, 288, 25, 25)  0           batch_normalization_40[0][0]     
__________________________________________________________________________________________________
conv2d_41 (Conv2D)              (None, 128, 25, 25)  36864       activation_40[0][0]              
__________________________________________________________________________________________________
batch_normalization_41 (BatchNo (None, 128, 25, 25)  512         conv2d_41[0][0]                  
__________________________________________________________________________________________________
activation_41 (Activation)      (None, 128, 25, 25)  0           batch_normalization_41[0][0]     
__________________________________________________________________________________________________
conv2d_42 (Conv2D)              (None, 32, 25, 25)   36864       activation_41[0][0]              
__________________________________________________________________________________________________
concatenate_19 (Concatenate)    (None, 320, 25, 25)  0           concatenate_18[0][0]             
                                                                 conv2d_42[0][0]                  
__________________________________________________________________________________________________
batch_normalization_42 (BatchNo (None, 320, 25, 25)  1280        concatenate_19[0][0]             
__________________________________________________________________________________________________
activation_42 (Activation)      (None, 320, 25, 25)  0           batch_normalization_42[0][0]     
__________________________________________________________________________________________________
conv2d_43 (Conv2D)              (None, 128, 25, 25)  40960       activation_42[0][0]              
__________________________________________________________________________________________________
batch_normalization_43 (BatchNo (None, 128, 25, 25)  512         conv2d_43[0][0]                  
__________________________________________________________________________________________________
activation_43 (Activation)      (None, 128, 25, 25)  0           batch_normalization_43[0][0]     
__________________________________________________________________________________________________
conv2d_44 (Conv2D)              (None, 32, 25, 25)   36864       activation_43[0][0]              
__________________________________________________________________________________________________
concatenate_20 (Concatenate)    (None, 352, 25, 25)  0           concatenate_19[0][0]             
                                                                 conv2d_44[0][0]                  
__________________________________________________________________________________________________
batch_normalization_44 (BatchNo (None, 352, 25, 25)  1408        concatenate_20[0][0]             
__________________________________________________________________________________________________
activation_44 (Activation)      (None, 352, 25, 25)  0           batch_normalization_44[0][0]     
__________________________________________________________________________________________________
conv2d_45 (Conv2D)              (None, 128, 25, 25)  45056       activation_44[0][0]              
__________________________________________________________________________________________________
batch_normalization_45 (BatchNo (None, 128, 25, 25)  512         conv2d_45[0][0]                  
__________________________________________________________________________________________________
activation_45 (Activation)      (None, 128, 25, 25)  0           batch_normalization_45[0][0]     
__________________________________________________________________________________________________
conv2d_46 (Conv2D)              (None, 32, 25, 25)   36864       activation_45[0][0]              
__________________________________________________________________________________________________
concatenate_21 (Concatenate)    (None, 384, 25, 25)  0           concatenate_20[0][0]             
                                                                 conv2d_46[0][0]                  
__________________________________________________________________________________________________
batch_normalization_46 (BatchNo (None, 384, 25, 25)  1536        concatenate_21[0][0]             
__________________________________________________________________________________________________
activation_46 (Activation)      (None, 384, 25, 25)  0           batch_normalization_46[0][0]     
__________________________________________________________________________________________________
conv2d_47 (Conv2D)              (None, 128, 25, 25)  49152       activation_46[0][0]              
__________________________________________________________________________________________________
batch_normalization_47 (BatchNo (None, 128, 25, 25)  512         conv2d_47[0][0]                  
__________________________________________________________________________________________________
activation_47 (Activation)      (None, 128, 25, 25)  0           batch_normalization_47[0][0]     
__________________________________________________________________________________________________
conv2d_48 (Conv2D)              (None, 32, 25, 25)   36864       activation_47[0][0]              
__________________________________________________________________________________________________
concatenate_22 (Concatenate)    (None, 416, 25, 25)  0           concatenate_21[0][0]             
                                                                 conv2d_48[0][0]                  
__________________________________________________________________________________________________
batch_normalization_48 (BatchNo (None, 416, 25, 25)  1664        concatenate_22[0][0]             
__________________________________________________________________________________________________
activation_48 (Activation)      (None, 416, 25, 25)  0           batch_normalization_48[0][0]     
__________________________________________________________________________________________________
conv2d_49 (Conv2D)              (None, 128, 25, 25)  53248       activation_48[0][0]              
__________________________________________________________________________________________________
batch_normalization_49 (BatchNo (None, 128, 25, 25)  512         conv2d_49[0][0]                  
__________________________________________________________________________________________________
activation_49 (Activation)      (None, 128, 25, 25)  0           batch_normalization_49[0][0]     
__________________________________________________________________________________________________
conv2d_50 (Conv2D)              (None, 32, 25, 25)   36864       activation_49[0][0]              
__________________________________________________________________________________________________
concatenate_23 (Concatenate)    (None, 448, 25, 25)  0           concatenate_22[0][0]             
                                                                 conv2d_50[0][0]                  
__________________________________________________________________________________________________
batch_normalization_50 (BatchNo (None, 448, 25, 25)  1792        concatenate_23[0][0]             
__________________________________________________________________________________________________
activation_50 (Activation)      (None, 448, 25, 25)  0           batch_normalization_50[0][0]     
__________________________________________________________________________________________________
conv2d_51 (Conv2D)              (None, 128, 25, 25)  57344       activation_50[0][0]              
__________________________________________________________________________________________________
batch_normalization_51 (BatchNo (None, 128, 25, 25)  512         conv2d_51[0][0]                  
__________________________________________________________________________________________________
activation_51 (Activation)      (None, 128, 25, 25)  0           batch_normalization_51[0][0]     
__________________________________________________________________________________________________
conv2d_52 (Conv2D)              (None, 32, 25, 25)   36864       activation_51[0][0]              
__________________________________________________________________________________________________
concatenate_24 (Concatenate)    (None, 480, 25, 25)  0           concatenate_23[0][0]             
                                                                 conv2d_52[0][0]                  
__________________________________________________________________________________________________
batch_normalization_52 (BatchNo (None, 480, 25, 25)  1920        concatenate_24[0][0]             
__________________________________________________________________________________________________
activation_52 (Activation)      (None, 480, 25, 25)  0           batch_normalization_52[0][0]     
__________________________________________________________________________________________________
conv2d_53 (Conv2D)              (None, 128, 25, 25)  61440       activation_52[0][0]              
__________________________________________________________________________________________________
batch_normalization_53 (BatchNo (None, 128, 25, 25)  512         conv2d_53[0][0]                  
__________________________________________________________________________________________________
activation_53 (Activation)      (None, 128, 25, 25)  0           batch_normalization_53[0][0]     
__________________________________________________________________________________________________
conv2d_54 (Conv2D)              (None, 32, 25, 25)   36864       activation_53[0][0]              
__________________________________________________________________________________________________
concatenate_25 (Concatenate)    (None, 512, 25, 25)  0           concatenate_24[0][0]             
                                                                 conv2d_54[0][0]                  
__________________________________________________________________________________________________
batch_normalization_54 (BatchNo (None, 512, 25, 25)  2048        concatenate_25[0][0]             
__________________________________________________________________________________________________
activation_54 (Activation)      (None, 512, 25, 25)  0           batch_normalization_54[0][0]     
__________________________________________________________________________________________________
conv2d_55 (Conv2D)              (None, 128, 25, 25)  65536       activation_54[0][0]              
__________________________________________________________________________________________________
batch_normalization_55 (BatchNo (None, 128, 25, 25)  512         conv2d_55[0][0]                  
__________________________________________________________________________________________________
activation_55 (Activation)      (None, 128, 25, 25)  0           batch_normalization_55[0][0]     
__________________________________________________________________________________________________
conv2d_56 (Conv2D)              (None, 32, 25, 25)   36864       activation_55[0][0]              
__________________________________________________________________________________________________
concatenate_26 (Concatenate)    (None, 544, 25, 25)  0           concatenate_25[0][0]             
                                                                 conv2d_56[0][0]                  
__________________________________________________________________________________________________
batch_normalization_56 (BatchNo (None, 544, 25, 25)  2176        concatenate_26[0][0]             
__________________________________________________________________________________________________
activation_56 (Activation)      (None, 544, 25, 25)  0           batch_normalization_56[0][0]     
__________________________________________________________________________________________________
conv2d_57 (Conv2D)              (None, 128, 25, 25)  69632       activation_56[0][0]              
__________________________________________________________________________________________________
batch_normalization_57 (BatchNo (None, 128, 25, 25)  512         conv2d_57[0][0]                  
__________________________________________________________________________________________________
activation_57 (Activation)      (None, 128, 25, 25)  0           batch_normalization_57[0][0]     
__________________________________________________________________________________________________
conv2d_58 (Conv2D)              (None, 32, 25, 25)   36864       activation_57[0][0]              
__________________________________________________________________________________________________
concatenate_27 (Concatenate)    (None, 576, 25, 25)  0           concatenate_26[0][0]             
                                                                 conv2d_58[0][0]                  
__________________________________________________________________________________________________
batch_normalization_58 (BatchNo (None, 576, 25, 25)  2304        concatenate_27[0][0]             
__________________________________________________________________________________________________
activation_58 (Activation)      (None, 576, 25, 25)  0           batch_normalization_58[0][0]     
__________________________________________________________________________________________________
conv2d_59 (Conv2D)              (None, 128, 25, 25)  73728       activation_58[0][0]              
__________________________________________________________________________________________________
batch_normalization_59 (BatchNo (None, 128, 25, 25)  512         conv2d_59[0][0]                  
__________________________________________________________________________________________________
activation_59 (Activation)      (None, 128, 25, 25)  0           batch_normalization_59[0][0]     
__________________________________________________________________________________________________
conv2d_60 (Conv2D)              (None, 32, 25, 25)   36864       activation_59[0][0]              
__________________________________________________________________________________________________
concatenate_28 (Concatenate)    (None, 608, 25, 25)  0           concatenate_27[0][0]             
                                                                 conv2d_60[0][0]                  
__________________________________________________________________________________________________
batch_normalization_60 (BatchNo (None, 608, 25, 25)  2432        concatenate_28[0][0]             
__________________________________________________________________________________________________
activation_60 (Activation)      (None, 608, 25, 25)  0           batch_normalization_60[0][0]     
__________________________________________________________________________________________________
conv2d_61 (Conv2D)              (None, 128, 25, 25)  77824       activation_60[0][0]              
__________________________________________________________________________________________________
batch_normalization_61 (BatchNo (None, 128, 25, 25)  512         conv2d_61[0][0]                  
__________________________________________________________________________________________________
activation_61 (Activation)      (None, 128, 25, 25)  0           batch_normalization_61[0][0]     
__________________________________________________________________________________________________
conv2d_62 (Conv2D)              (None, 32, 25, 25)   36864       activation_61[0][0]              
__________________________________________________________________________________________________
concatenate_29 (Concatenate)    (None, 640, 25, 25)  0           concatenate_28[0][0]             
                                                                 conv2d_62[0][0]                  
__________________________________________________________________________________________________
batch_normalization_62 (BatchNo (None, 640, 25, 25)  2560        concatenate_29[0][0]             
__________________________________________________________________________________________________
activation_62 (Activation)      (None, 640, 25, 25)  0           batch_normalization_62[0][0]     
__________________________________________________________________________________________________
conv2d_63 (Conv2D)              (None, 128, 25, 25)  81920       activation_62[0][0]              
__________________________________________________________________________________________________
batch_normalization_63 (BatchNo (None, 128, 25, 25)  512         conv2d_63[0][0]                  
__________________________________________________________________________________________________
activation_63 (Activation)      (None, 128, 25, 25)  0           batch_normalization_63[0][0]     
__________________________________________________________________________________________________
conv2d_64 (Conv2D)              (None, 32, 25, 25)   36864       activation_63[0][0]              
__________________________________________________________________________________________________
concatenate_30 (Concatenate)    (None, 672, 25, 25)  0           concatenate_29[0][0]             
                                                                 conv2d_64[0][0]                  
__________________________________________________________________________________________________
batch_normalization_64 (BatchNo (None, 672, 25, 25)  2688        concatenate_30[0][0]             
__________________________________________________________________________________________________
activation_64 (Activation)      (None, 672, 25, 25)  0           batch_normalization_64[0][0]     
__________________________________________________________________________________________________
conv2d_65 (Conv2D)              (None, 128, 25, 25)  86016       activation_64[0][0]              
__________________________________________________________________________________________________
batch_normalization_65 (BatchNo (None, 128, 25, 25)  512         conv2d_65[0][0]                  
__________________________________________________________________________________________________
activation_65 (Activation)      (None, 128, 25, 25)  0           batch_normalization_65[0][0]     
__________________________________________________________________________________________________
conv2d_66 (Conv2D)              (None, 32, 25, 25)   36864       activation_65[0][0]              
__________________________________________________________________________________________________
concatenate_31 (Concatenate)    (None, 704, 25, 25)  0           concatenate_30[0][0]             
                                                                 conv2d_66[0][0]                  
__________________________________________________________________________________________________
batch_normalization_66 (BatchNo (None, 704, 25, 25)  2816        concatenate_31[0][0]             
__________________________________________________________________________________________________
activation_66 (Activation)      (None, 704, 25, 25)  0           batch_normalization_66[0][0]     
__________________________________________________________________________________________________
conv2d_67 (Conv2D)              (None, 128, 25, 25)  90112       activation_66[0][0]              
__________________________________________________________________________________________________
batch_normalization_67 (BatchNo (None, 128, 25, 25)  512         conv2d_67[0][0]                  
__________________________________________________________________________________________________
activation_67 (Activation)      (None, 128, 25, 25)  0           batch_normalization_67[0][0]     
__________________________________________________________________________________________________
conv2d_68 (Conv2D)              (None, 32, 25, 25)   36864       activation_67[0][0]              
__________________________________________________________________________________________________
concatenate_32 (Concatenate)    (None, 736, 25, 25)  0           concatenate_31[0][0]             
                                                                 conv2d_68[0][0]                  
__________________________________________________________________________________________________
batch_normalization_68 (BatchNo (None, 736, 25, 25)  2944        concatenate_32[0][0]             
__________________________________________________________________________________________________
activation_68 (Activation)      (None, 736, 25, 25)  0           batch_normalization_68[0][0]     
__________________________________________________________________________________________________
conv2d_69 (Conv2D)              (None, 128, 25, 25)  94208       activation_68[0][0]              
__________________________________________________________________________________________________
batch_normalization_69 (BatchNo (None, 128, 25, 25)  512         conv2d_69[0][0]                  
__________________________________________________________________________________________________
activation_69 (Activation)      (None, 128, 25, 25)  0           batch_normalization_69[0][0]     
__________________________________________________________________________________________________
conv2d_70 (Conv2D)              (None, 32, 25, 25)   36864       activation_69[0][0]              
__________________________________________________________________________________________________
concatenate_33 (Concatenate)    (None, 768, 25, 25)  0           concatenate_32[0][0]             
                                                                 conv2d_70[0][0]                  
__________________________________________________________________________________________________
batch_normalization_70 (BatchNo (None, 768, 25, 25)  3072        concatenate_33[0][0]             
__________________________________________________________________________________________________
activation_70 (Activation)      (None, 768, 25, 25)  0           batch_normalization_70[0][0]     
__________________________________________________________________________________________________
conv2d_71 (Conv2D)              (None, 128, 25, 25)  98304       activation_70[0][0]              
__________________________________________________________________________________________________
batch_normalization_71 (BatchNo (None, 128, 25, 25)  512         conv2d_71[0][0]                  
__________________________________________________________________________________________________
activation_71 (Activation)      (None, 128, 25, 25)  0           batch_normalization_71[0][0]     
__________________________________________________________________________________________________
conv2d_72 (Conv2D)              (None, 32, 25, 25)   36864       activation_71[0][0]              
__________________________________________________________________________________________________
concatenate_34 (Concatenate)    (None, 800, 25, 25)  0           concatenate_33[0][0]             
                                                                 conv2d_72[0][0]                  
__________________________________________________________________________________________________
batch_normalization_72 (BatchNo (None, 800, 25, 25)  3200        concatenate_34[0][0]             
__________________________________________________________________________________________________
activation_72 (Activation)      (None, 800, 25, 25)  0           batch_normalization_72[0][0]     
__________________________________________________________________________________________________
conv2d_73 (Conv2D)              (None, 128, 25, 25)  102400      activation_72[0][0]              
__________________________________________________________________________________________________
batch_normalization_73 (BatchNo (None, 128, 25, 25)  512         conv2d_73[0][0]                  
__________________________________________________________________________________________________
activation_73 (Activation)      (None, 128, 25, 25)  0           batch_normalization_73[0][0]     
__________________________________________________________________________________________________
conv2d_74 (Conv2D)              (None, 32, 25, 25)   36864       activation_73[0][0]              
__________________________________________________________________________________________________
concatenate_35 (Concatenate)    (None, 832, 25, 25)  0           concatenate_34[0][0]             
                                                                 conv2d_74[0][0]                  
__________________________________________________________________________________________________
batch_normalization_74 (BatchNo (None, 832, 25, 25)  3328        concatenate_35[0][0]             
__________________________________________________________________________________________________
activation_74 (Activation)      (None, 832, 25, 25)  0           batch_normalization_74[0][0]     
__________________________________________________________________________________________________
conv2d_75 (Conv2D)              (None, 128, 25, 25)  106496      activation_74[0][0]              
__________________________________________________________________________________________________
batch_normalization_75 (BatchNo (None, 128, 25, 25)  512         conv2d_75[0][0]                  
__________________________________________________________________________________________________
activation_75 (Activation)      (None, 128, 25, 25)  0           batch_normalization_75[0][0]     
__________________________________________________________________________________________________
conv2d_76 (Conv2D)              (None, 32, 25, 25)   36864       activation_75[0][0]              
__________________________________________________________________________________________________
concatenate_36 (Concatenate)    (None, 864, 25, 25)  0           concatenate_35[0][0]             
                                                                 conv2d_76[0][0]                  
__________________________________________________________________________________________________
batch_normalization_76 (BatchNo (None, 864, 25, 25)  3456        concatenate_36[0][0]             
__________________________________________________________________________________________________
activation_76 (Activation)      (None, 864, 25, 25)  0           batch_normalization_76[0][0]     
__________________________________________________________________________________________________
conv2d_77 (Conv2D)              (None, 128, 25, 25)  110592      activation_76[0][0]              
__________________________________________________________________________________________________
batch_normalization_77 (BatchNo (None, 128, 25, 25)  512         conv2d_77[0][0]                  
__________________________________________________________________________________________________
activation_77 (Activation)      (None, 128, 25, 25)  0           batch_normalization_77[0][0]     
__________________________________________________________________________________________________
conv2d_78 (Conv2D)              (None, 32, 25, 25)   36864       activation_77[0][0]              
__________________________________________________________________________________________________
concatenate_37 (Concatenate)    (None, 896, 25, 25)  0           concatenate_36[0][0]             
                                                                 conv2d_78[0][0]                  
__________________________________________________________________________________________________
batch_normalization_78 (BatchNo (None, 896, 25, 25)  3584        concatenate_37[0][0]             
__________________________________________________________________________________________________
activation_78 (Activation)      (None, 896, 25, 25)  0           batch_normalization_78[0][0]     
__________________________________________________________________________________________________
conv2d_79 (Conv2D)              (None, 128, 25, 25)  114688      activation_78[0][0]              
__________________________________________________________________________________________________
batch_normalization_79 (BatchNo (None, 128, 25, 25)  512         conv2d_79[0][0]                  
__________________________________________________________________________________________________
activation_79 (Activation)      (None, 128, 25, 25)  0           batch_normalization_79[0][0]     
__________________________________________________________________________________________________
conv2d_80 (Conv2D)              (None, 32, 25, 25)   36864       activation_79[0][0]              
__________________________________________________________________________________________________
concatenate_38 (Concatenate)    (None, 928, 25, 25)  0           concatenate_37[0][0]             
                                                                 conv2d_80[0][0]                  
__________________________________________________________________________________________________
batch_normalization_80 (BatchNo (None, 928, 25, 25)  3712        concatenate_38[0][0]             
__________________________________________________________________________________________________
activation_80 (Activation)      (None, 928, 25, 25)  0           batch_normalization_80[0][0]     
__________________________________________________________________________________________________
conv2d_81 (Conv2D)              (None, 128, 25, 25)  118784      activation_80[0][0]              
__________________________________________________________________________________________________
batch_normalization_81 (BatchNo (None, 128, 25, 25)  512         conv2d_81[0][0]                  
__________________________________________________________________________________________________
activation_81 (Activation)      (None, 128, 25, 25)  0           batch_normalization_81[0][0]     
__________________________________________________________________________________________________
conv2d_82 (Conv2D)              (None, 32, 25, 25)   36864       activation_81[0][0]              
__________________________________________________________________________________________________
concatenate_39 (Concatenate)    (None, 960, 25, 25)  0           concatenate_38[0][0]             
                                                                 conv2d_82[0][0]                  
__________________________________________________________________________________________________
batch_normalization_82 (BatchNo (None, 960, 25, 25)  3840        concatenate_39[0][0]             
__________________________________________________________________________________________________
activation_82 (Activation)      (None, 960, 25, 25)  0           batch_normalization_82[0][0]     
__________________________________________________________________________________________________
conv2d_83 (Conv2D)              (None, 128, 25, 25)  122880      activation_82[0][0]              
__________________________________________________________________________________________________
batch_normalization_83 (BatchNo (None, 128, 25, 25)  512         conv2d_83[0][0]                  
__________________________________________________________________________________________________
activation_83 (Activation)      (None, 128, 25, 25)  0           batch_normalization_83[0][0]     
__________________________________________________________________________________________________
conv2d_84 (Conv2D)              (None, 32, 25, 25)   36864       activation_83[0][0]              
__________________________________________________________________________________________________
concatenate_40 (Concatenate)    (None, 992, 25, 25)  0           concatenate_39[0][0]             
                                                                 conv2d_84[0][0]                  
__________________________________________________________________________________________________
batch_normalization_84 (BatchNo (None, 992, 25, 25)  3968        concatenate_40[0][0]             
__________________________________________________________________________________________________
activation_84 (Activation)      (None, 992, 25, 25)  0           batch_normalization_84[0][0]     
__________________________________________________________________________________________________
conv2d_85 (Conv2D)              (None, 128, 25, 25)  126976      activation_84[0][0]              
__________________________________________________________________________________________________
batch_normalization_85 (BatchNo (None, 128, 25, 25)  512         conv2d_85[0][0]                  
__________________________________________________________________________________________________
activation_85 (Activation)      (None, 128, 25, 25)  0           batch_normalization_85[0][0]     
__________________________________________________________________________________________________
conv2d_86 (Conv2D)              (None, 32, 25, 25)   36864       activation_85[0][0]              
__________________________________________________________________________________________________
concatenate_41 (Concatenate)    (None, 1024, 25, 25) 0           concatenate_40[0][0]             
                                                                 conv2d_86[0][0]                  
__________________________________________________________________________________________________
batch_normalization_86 (BatchNo (None, 1024, 25, 25) 4096        concatenate_41[0][0]             
__________________________________________________________________________________________________
activation_86 (Activation)      (None, 1024, 25, 25) 0           batch_normalization_86[0][0]     
__________________________________________________________________________________________________
conv2d_87 (Conv2D)              (None, 512, 25, 25)  524288      activation_86[0][0]              
__________________________________________________________________________________________________
average_pooling2d_2 (AveragePoo (None, 512, 12, 12)  0           conv2d_87[0][0]                  
__________________________________________________________________________________________________
batch_normalization_87 (BatchNo (None, 512, 12, 12)  2048        average_pooling2d_2[0][0]        
__________________________________________________________________________________________________
activation_87 (Activation)      (None, 512, 12, 12)  0           batch_normalization_87[0][0]     
__________________________________________________________________________________________________
conv2d_88 (Conv2D)              (None, 128, 12, 12)  65536       activation_87[0][0]              
__________________________________________________________________________________________________
batch_normalization_88 (BatchNo (None, 128, 12, 12)  512         conv2d_88[0][0]                  
__________________________________________________________________________________________________
activation_88 (Activation)      (None, 128, 12, 12)  0           batch_normalization_88[0][0]     
__________________________________________________________________________________________________
conv2d_89 (Conv2D)              (None, 32, 12, 12)   36864       activation_88[0][0]              
__________________________________________________________________________________________________
concatenate_42 (Concatenate)    (None, 544, 12, 12)  0           average_pooling2d_2[0][0]        
                                                                 conv2d_89[0][0]                  
__________________________________________________________________________________________________
batch_normalization_89 (BatchNo (None, 544, 12, 12)  2176        concatenate_42[0][0]             
__________________________________________________________________________________________________
activation_89 (Activation)      (None, 544, 12, 12)  0           batch_normalization_89[0][0]     
__________________________________________________________________________________________________
conv2d_90 (Conv2D)              (None, 128, 12, 12)  69632       activation_89[0][0]              
__________________________________________________________________________________________________
batch_normalization_90 (BatchNo (None, 128, 12, 12)  512         conv2d_90[0][0]                  
__________________________________________________________________________________________________
activation_90 (Activation)      (None, 128, 12, 12)  0           batch_normalization_90[0][0]     
__________________________________________________________________________________________________
conv2d_91 (Conv2D)              (None, 32, 12, 12)   36864       activation_90[0][0]              
__________________________________________________________________________________________________
concatenate_43 (Concatenate)    (None, 576, 12, 12)  0           concatenate_42[0][0]             
                                                                 conv2d_91[0][0]                  
__________________________________________________________________________________________________
batch_normalization_91 (BatchNo (None, 576, 12, 12)  2304        concatenate_43[0][0]             
__________________________________________________________________________________________________
activation_91 (Activation)      (None, 576, 12, 12)  0           batch_normalization_91[0][0]     
__________________________________________________________________________________________________
conv2d_92 (Conv2D)              (None, 128, 12, 12)  73728       activation_91[0][0]              
__________________________________________________________________________________________________
batch_normalization_92 (BatchNo (None, 128, 12, 12)  512         conv2d_92[0][0]                  
__________________________________________________________________________________________________
activation_92 (Activation)      (None, 128, 12, 12)  0           batch_normalization_92[0][0]     
__________________________________________________________________________________________________
conv2d_93 (Conv2D)              (None, 32, 12, 12)   36864       activation_92[0][0]              
__________________________________________________________________________________________________
concatenate_44 (Concatenate)    (None, 608, 12, 12)  0           concatenate_43[0][0]             
                                                                 conv2d_93[0][0]                  
__________________________________________________________________________________________________
batch_normalization_93 (BatchNo (None, 608, 12, 12)  2432        concatenate_44[0][0]             
__________________________________________________________________________________________________
activation_93 (Activation)      (None, 608, 12, 12)  0           batch_normalization_93[0][0]     
__________________________________________________________________________________________________
conv2d_94 (Conv2D)              (None, 128, 12, 12)  77824       activation_93[0][0]              
__________________________________________________________________________________________________
batch_normalization_94 (BatchNo (None, 128, 12, 12)  512         conv2d_94[0][0]                  
__________________________________________________________________________________________________
activation_94 (Activation)      (None, 128, 12, 12)  0           batch_normalization_94[0][0]     
__________________________________________________________________________________________________
conv2d_95 (Conv2D)              (None, 32, 12, 12)   36864       activation_94[0][0]              
__________________________________________________________________________________________________
concatenate_45 (Concatenate)    (None, 640, 12, 12)  0           concatenate_44[0][0]             
                                                                 conv2d_95[0][0]                  
__________________________________________________________________________________________________
batch_normalization_95 (BatchNo (None, 640, 12, 12)  2560        concatenate_45[0][0]             
__________________________________________________________________________________________________
activation_95 (Activation)      (None, 640, 12, 12)  0           batch_normalization_95[0][0]     
__________________________________________________________________________________________________
conv2d_96 (Conv2D)              (None, 128, 12, 12)  81920       activation_95[0][0]              
__________________________________________________________________________________________________
batch_normalization_96 (BatchNo (None, 128, 12, 12)  512         conv2d_96[0][0]                  
__________________________________________________________________________________________________
activation_96 (Activation)      (None, 128, 12, 12)  0           batch_normalization_96[0][0]     
__________________________________________________________________________________________________
conv2d_97 (Conv2D)              (None, 32, 12, 12)   36864       activation_96[0][0]              
__________________________________________________________________________________________________
concatenate_46 (Concatenate)    (None, 672, 12, 12)  0           concatenate_45[0][0]             
                                                                 conv2d_97[0][0]                  
__________________________________________________________________________________________________
batch_normalization_97 (BatchNo (None, 672, 12, 12)  2688        concatenate_46[0][0]             
__________________________________________________________________________________________________
activation_97 (Activation)      (None, 672, 12, 12)  0           batch_normalization_97[0][0]     
__________________________________________________________________________________________________
conv2d_98 (Conv2D)              (None, 128, 12, 12)  86016       activation_97[0][0]              
__________________________________________________________________________________________________
batch_normalization_98 (BatchNo (None, 128, 12, 12)  512         conv2d_98[0][0]                  
__________________________________________________________________________________________________
activation_98 (Activation)      (None, 128, 12, 12)  0           batch_normalization_98[0][0]     
__________________________________________________________________________________________________
conv2d_99 (Conv2D)              (None, 32, 12, 12)   36864       activation_98[0][0]              
__________________________________________________________________________________________________
concatenate_47 (Concatenate)    (None, 704, 12, 12)  0           concatenate_46[0][0]             
                                                                 conv2d_99[0][0]                  
__________________________________________________________________________________________________
batch_normalization_99 (BatchNo (None, 704, 12, 12)  2816        concatenate_47[0][0]             
__________________________________________________________________________________________________
activation_99 (Activation)      (None, 704, 12, 12)  0           batch_normalization_99[0][0]     
__________________________________________________________________________________________________
conv2d_100 (Conv2D)             (None, 128, 12, 12)  90112       activation_99[0][0]              
__________________________________________________________________________________________________
batch_normalization_100 (BatchN (None, 128, 12, 12)  512         conv2d_100[0][0]                 
__________________________________________________________________________________________________
activation_100 (Activation)     (None, 128, 12, 12)  0           batch_normalization_100[0][0]    
__________________________________________________________________________________________________
conv2d_101 (Conv2D)             (None, 32, 12, 12)   36864       activation_100[0][0]             
__________________________________________________________________________________________________
concatenate_48 (Concatenate)    (None, 736, 12, 12)  0           concatenate_47[0][0]             
                                                                 conv2d_101[0][0]                 
__________________________________________________________________________________________________
batch_normalization_101 (BatchN (None, 736, 12, 12)  2944        concatenate_48[0][0]             
__________________________________________________________________________________________________
activation_101 (Activation)     (None, 736, 12, 12)  0           batch_normalization_101[0][0]    
__________________________________________________________________________________________________
conv2d_102 (Conv2D)             (None, 128, 12, 12)  94208       activation_101[0][0]             
__________________________________________________________________________________________________
batch_normalization_102 (BatchN (None, 128, 12, 12)  512         conv2d_102[0][0]                 
__________________________________________________________________________________________________
activation_102 (Activation)     (None, 128, 12, 12)  0           batch_normalization_102[0][0]    
__________________________________________________________________________________________________
conv2d_103 (Conv2D)             (None, 32, 12, 12)   36864       activation_102[0][0]             
__________________________________________________________________________________________________
concatenate_49 (Concatenate)    (None, 768, 12, 12)  0           concatenate_48[0][0]             
                                                                 conv2d_103[0][0]                 
__________________________________________________________________________________________________
batch_normalization_103 (BatchN (None, 768, 12, 12)  3072        concatenate_49[0][0]             
__________________________________________________________________________________________________
activation_103 (Activation)     (None, 768, 12, 12)  0           batch_normalization_103[0][0]    
__________________________________________________________________________________________________
conv2d_104 (Conv2D)             (None, 128, 12, 12)  98304       activation_103[0][0]             
__________________________________________________________________________________________________
batch_normalization_104 (BatchN (None, 128, 12, 12)  512         conv2d_104[0][0]                 
__________________________________________________________________________________________________
activation_104 (Activation)     (None, 128, 12, 12)  0           batch_normalization_104[0][0]    
__________________________________________________________________________________________________
conv2d_105 (Conv2D)             (None, 32, 12, 12)   36864       activation_104[0][0]             
__________________________________________________________________________________________________
concatenate_50 (Concatenate)    (None, 800, 12, 12)  0           concatenate_49[0][0]             
                                                                 conv2d_105[0][0]                 
__________________________________________________________________________________________________
batch_normalization_105 (BatchN (None, 800, 12, 12)  3200        concatenate_50[0][0]             
__________________________________________________________________________________________________
activation_105 (Activation)     (None, 800, 12, 12)  0           batch_normalization_105[0][0]    
__________________________________________________________________________________________________
conv2d_106 (Conv2D)             (None, 128, 12, 12)  102400      activation_105[0][0]             
__________________________________________________________________________________________________
batch_normalization_106 (BatchN (None, 128, 12, 12)  512         conv2d_106[0][0]                 
__________________________________________________________________________________________________
activation_106 (Activation)     (None, 128, 12, 12)  0           batch_normalization_106[0][0]    
__________________________________________________________________________________________________
conv2d_107 (Conv2D)             (None, 32, 12, 12)   36864       activation_106[0][0]             
__________________________________________________________________________________________________
concatenate_51 (Concatenate)    (None, 832, 12, 12)  0           concatenate_50[0][0]             
                                                                 conv2d_107[0][0]                 
__________________________________________________________________________________________________
batch_normalization_107 (BatchN (None, 832, 12, 12)  3328        concatenate_51[0][0]             
__________________________________________________________________________________________________
activation_107 (Activation)     (None, 832, 12, 12)  0           batch_normalization_107[0][0]    
__________________________________________________________________________________________________
conv2d_108 (Conv2D)             (None, 128, 12, 12)  106496      activation_107[0][0]             
__________________________________________________________________________________________________
batch_normalization_108 (BatchN (None, 128, 12, 12)  512         conv2d_108[0][0]                 
__________________________________________________________________________________________________
activation_108 (Activation)     (None, 128, 12, 12)  0           batch_normalization_108[0][0]    
__________________________________________________________________________________________________
conv2d_109 (Conv2D)             (None, 32, 12, 12)   36864       activation_108[0][0]             
__________________________________________________________________________________________________
concatenate_52 (Concatenate)    (None, 864, 12, 12)  0           concatenate_51[0][0]             
                                                                 conv2d_109[0][0]                 
__________________________________________________________________________________________________
batch_normalization_109 (BatchN (None, 864, 12, 12)  3456        concatenate_52[0][0]             
__________________________________________________________________________________________________
activation_109 (Activation)     (None, 864, 12, 12)  0           batch_normalization_109[0][0]    
__________________________________________________________________________________________________
conv2d_110 (Conv2D)             (None, 128, 12, 12)  110592      activation_109[0][0]             
__________________________________________________________________________________________________
batch_normalization_110 (BatchN (None, 128, 12, 12)  512         conv2d_110[0][0]                 
__________________________________________________________________________________________________
activation_110 (Activation)     (None, 128, 12, 12)  0           batch_normalization_110[0][0]    
__________________________________________________________________________________________________
conv2d_111 (Conv2D)             (None, 32, 12, 12)   36864       activation_110[0][0]             
__________________________________________________________________________________________________
concatenate_53 (Concatenate)    (None, 896, 12, 12)  0           concatenate_52[0][0]             
                                                                 conv2d_111[0][0]                 
__________________________________________________________________________________________________
batch_normalization_111 (BatchN (None, 896, 12, 12)  3584        concatenate_53[0][0]             
__________________________________________________________________________________________________
activation_111 (Activation)     (None, 896, 12, 12)  0           batch_normalization_111[0][0]    
__________________________________________________________________________________________________
conv2d_112 (Conv2D)             (None, 128, 12, 12)  114688      activation_111[0][0]             
__________________________________________________________________________________________________
batch_normalization_112 (BatchN (None, 128, 12, 12)  512         conv2d_112[0][0]                 
__________________________________________________________________________________________________
activation_112 (Activation)     (None, 128, 12, 12)  0           batch_normalization_112[0][0]    
__________________________________________________________________________________________________
conv2d_113 (Conv2D)             (None, 32, 12, 12)   36864       activation_112[0][0]             
__________________________________________________________________________________________________
concatenate_54 (Concatenate)    (None, 928, 12, 12)  0           concatenate_53[0][0]             
                                                                 conv2d_113[0][0]                 
__________________________________________________________________________________________________
batch_normalization_113 (BatchN (None, 928, 12, 12)  3712        concatenate_54[0][0]             
__________________________________________________________________________________________________
activation_113 (Activation)     (None, 928, 12, 12)  0           batch_normalization_113[0][0]    
__________________________________________________________________________________________________
conv2d_114 (Conv2D)             (None, 128, 12, 12)  118784      activation_113[0][0]             
__________________________________________________________________________________________________
batch_normalization_114 (BatchN (None, 128, 12, 12)  512         conv2d_114[0][0]                 
__________________________________________________________________________________________________
activation_114 (Activation)     (None, 128, 12, 12)  0           batch_normalization_114[0][0]    
__________________________________________________________________________________________________
conv2d_115 (Conv2D)             (None, 32, 12, 12)   36864       activation_114[0][0]             
__________________________________________________________________________________________________
concatenate_55 (Concatenate)    (None, 960, 12, 12)  0           concatenate_54[0][0]             
                                                                 conv2d_115[0][0]                 
__________________________________________________________________________________________________
batch_normalization_115 (BatchN (None, 960, 12, 12)  3840        concatenate_55[0][0]             
__________________________________________________________________________________________________
activation_115 (Activation)     (None, 960, 12, 12)  0           batch_normalization_115[0][0]    
__________________________________________________________________________________________________
conv2d_116 (Conv2D)             (None, 128, 12, 12)  122880      activation_115[0][0]             
__________________________________________________________________________________________________
batch_normalization_116 (BatchN (None, 128, 12, 12)  512         conv2d_116[0][0]                 
__________________________________________________________________________________________________
activation_116 (Activation)     (None, 128, 12, 12)  0           batch_normalization_116[0][0]    
__________________________________________________________________________________________________
conv2d_117 (Conv2D)             (None, 32, 12, 12)   36864       activation_116[0][0]             
__________________________________________________________________________________________________
concatenate_56 (Concatenate)    (None, 992, 12, 12)  0           concatenate_55[0][0]             
                                                                 conv2d_117[0][0]                 
__________________________________________________________________________________________________
batch_normalization_117 (BatchN (None, 992, 12, 12)  3968        concatenate_56[0][0]             
__________________________________________________________________________________________________
activation_117 (Activation)     (None, 992, 12, 12)  0           batch_normalization_117[0][0]    
__________________________________________________________________________________________________
conv2d_118 (Conv2D)             (None, 128, 12, 12)  126976      activation_117[0][0]             
__________________________________________________________________________________________________
batch_normalization_118 (BatchN (None, 128, 12, 12)  512         conv2d_118[0][0]                 
__________________________________________________________________________________________________
activation_118 (Activation)     (None, 128, 12, 12)  0           batch_normalization_118[0][0]    
__________________________________________________________________________________________________
conv2d_119 (Conv2D)             (None, 32, 12, 12)   36864       activation_118[0][0]             
__________________________________________________________________________________________________
concatenate_57 (Concatenate)    (None, 1024, 12, 12) 0           concatenate_56[0][0]             
                                                                 conv2d_119[0][0]                 
__________________________________________________________________________________________________
batch_normalization_119 (BatchN (None, 1024, 12, 12) 4096        concatenate_57[0][0]             
__________________________________________________________________________________________________
activation_119 (Activation)     (None, 1024, 12, 12) 0           batch_normalization_119[0][0]    
__________________________________________________________________________________________________
global_average_pooling2d (Globa (None, 1024)         0           activation_119[0][0]             
__________________________________________________________________________________________________
dense (Dense)                   (None, 3)            3075        global_average_pooling2d[0][0]   
==================================================================================================
Total params: 7,032,067
Trainable params: 6,948,547
Non-trainable params: 83,520
__________________________________________________________________________________________________

Time to train: 394.6880556901296 minutes.

Evaluating the model on the training and testing sets.
…
